chap_10/lightning_logs/version_0/checkpoints/epoch=29-step=5640.ckpt (torch, 68049 bytes, 4 tensors)

model.linear.1.weight f4 [10, 784]
000000 65 59 d1 bc ba 21 f4 bc 0e f9 b1 bc 9e 7b cc bc
       -0.025555322 -0.029801238 -0.021725204 -0.024961289
000010 6a 36 85 3c 3e bf a3 3c 1c 06 50 bc ee a0 6e 3b
       0.016261298 0.019988652 -0.012696769 0.003641184
000020 f4 d3 0b bd dc 85 8e 3a 38 c3 07 3d a5 47 e0 3b
       -0.03413768 0.0010873633 0.03314516 0.006844478
000030 7a 6e d8 bd 99 76 ca be f6 37 88 be 87 ea 80 3b
       -0.10567947 -0.39543608 -0.26605195 0.003934208
000040 f8 c1 f5 3c fc cb ee bc 6e 6b ec 3c 37 e5 d1 bb
       0.029999718 -0.029150002 0.02885982 -0.0064054984
000050 cf 91 01 bd 05 cb 6f bc ca 3a 02 bd 53 b5 fa 3c
       -0.031633195 -0.014635806 -0.031794347 0.03060404
000060 b8 58 f4 ba 3a 5f 96 bc 17 79 24 bc 4a 67 f0 3c
       -0.0018642163 -0.018355954 -0.010038636 0.029346127
000070 61 b4 c7 bc ae ad 0e 3d fb fc 0a bd a5 3a 9b 3b
       -0.024378004 0.034833603 -0.033932667 0.0047372156
000080 1b 58 c6 bc a9 d3 2f b8 18 f6 ad bd 0e 1f 91 be
       -0.024211934 -4.1920375e-05 -0.08494204 -0.28344005
000090 45 ed dd be 32 e6 37 bf c0 a7 00 c0 70 2b 05 40
       -0.43345085 -0.71835625 -2.0102386 2.0807762
0000a0 9a dd 09 40 22 b8 07 40 03 cf 71 c0 42 c2 1c 40
       2.1541505 2.1206136 -3.77826 2.4493566
0000b0 9a 70 21 40 5a e3 26 40 ee 7f 64 c0 e2 cb 8c bf
       2.5224977 2.6076264 -3.5703082 -1.099972
0000c0 4c 7d 65 bf 45 f4 0f bf 42 28 50 be ff 70 32 bd
       -0.8964431 -0.562321 -0.20327857 -0.043564793
0000d0 7c 5a 70 bc f6 3e 03 3d 83 48 e7 3c 2e 47 21 bc
       -0.014670011 0.032042466 0.028232818 -0.009843631
0000e0 6e 15 ad bc b7 c5 5a 3b 08 b7 20 bd 7e 38 0d 40
       -0.021128383 0.0033382007 -0.039237052 2.206573
0000f0 a6 36 12 40 a6 31 ff be 20 b0 ec bf 7e b8 b8 3e
       2.2845855 -0.49842566 -1.8491249 0.36078256
000100 6e 72 9e bf fe 95 5a c0 73 42 b4 c0 8c dc 10 c0
       -1.2378671 -3.4154048 -5.6331115 -2.263461
000110 5f f0 1d c0 27 69 c7 bf 02 98 85 c0 73 a5 d0 c0
       -2.467796 -1.5578965 -4.1748056 -6.5201964
000120 51 93 ee 3d 40 50 99 c0 95 2d 14 c0 7f 5d 87 bf
       0.11649192 -4.791046 -2.315282 -1.0575408
000130 33 c1 88 c0 54 dc 66 c0 28 6a 36 c0 16 db 0f c0
       -4.273584 -3.6071978 -2.8502293 -2.247747
000140 4b 06 ff bf f5 5f 2a be 8c b0 88 3c fe b6 fa 3c
       -1.9923795 -0.16638167 0.016685747 0.030604836
000150 ec 93 d3 bc 25 48 f5 3a ef 08 62 bc 4c 12 b6 3f
       -0.02582737 0.0018713517 -0.013796075 1.4224334
000160 c6 3b 93 bf 46 4b b7 3f c1 cb 83 bf 80 38 ea bf
       -1.1502616 1.4319847 -1.0296556 -1.8298492
000170 e0 1d a8 bf 57 71 1f bf 9e ee 3d bf b1 21 9e be
       -1.3134117 -0.6228232 -0.74192226 -0.3088508
000180 30 f2 83 bf f3 33 21 3f e8 1e 95 3f 65 f5 4f bf
       -1.0308285 0.62969893 1.1650057 -0.8123382
000190 c2 5d 39 3f 28 30 18 3f eb 34 b4 bf 16 db b6 bf
       0.7240869 0.5944848 -1.4078649 -1.428561
0001a0 54 30 5c 3f eb 31 9f bf 6b 7e 47 bf 4c 1f 1a bf
       0.8601124 -1.2437109 -0.77927274 -0.60204005
0001b0 8c 33 8f bf 65 48 82 3f a5 a4 0b c0 25 ab 65 bb
       -1.1187606 1.0178343 -2.181924 -0.0035044637
0001c0 8e b6 88 3c 57 6d e7 3c bf 3b 22 bf 6a 8f d7 bf
       0.016688611 0.02825038 -0.63372415 -1.6840641
0001d0 a6 13 b8 bf 6e 1c 97 c0 59 bf 0a c0 72 93 0e 3f
       -1.4380996 -4.7222204 -2.167929 0.55693734
0001e0 7b 4a 7a be a5 da ec 3e f0 be 2e bf 86 b2 71 3f
       -0.24442475 0.46260563 -0.682601 0.9441303
0001f0 51 d9 79 bf 16 bc 70 3e 00 1f e6 bd 2a 8d 91 3d
       -0.97597224 0.23509249 -0.112363815 0.07107003
000200 c9 32 c0 be bc 52 8e 3e 3e a9 49 be 48 b3 18 3e
       -0.37538746 0.27797496 -0.19693467 0.1491214
000210 3a 1d 92 be fe 12 e0 be 9b f9 72 3f 18 15 e1 3d
       -0.28537923 -0.4376449 0.9491212 0.109903514
000220 1a 21 1c bf c7 3b dd be 7e 64 43 c0 81 2a 50 bf
       -0.6098801 -0.4320967 -3.0530086 -0.81314856
000230 8b fb 03 3d ff 46 0f 3d e7 67 25 c0 dc b5 06 c0
       0.032222312 0.034979817 -2.5844667 -2.1048498
000240 dc 0f 35 c0 0d 58 4b c0 88 ed 01 3f f2 96 1f bf
       -2.829093 -3.1772492 0.5075307 -0.623397
000250 16 db 31 be 8a 8f d1 3b 6c 47 6b 3f 64 46 26 3e
       -0.17368731 0.006395285 0.91905856 0.1623779
000260 ec ad bf be f6 9b 92 3e f5 31 d4 3e 2a ef 24 be
       -0.3743738 0.28634614 0.41444364 -0.16106859
000270 f5 3f 19 3e b6 5c 0a 3f bc 64 75 3c fb ef e3 3d
       0.14965804 0.54047716 0.01497763 0.11129757
000280 46 d8 aa bd 1d d1 2f be 17 6b 17 bf 30 5e 30 bf
       -0.08342032 -0.17169614 -0.5914778 -0.6889372
000290 c1 34 13 bf 7f 92 82 bf 60 de 97 c0 39 b5 1b c0
       -0.5750237 -1.0200957 -4.7458954 -2.432936
0002a0 54 5e 05 3d 3f b3 f7 be 36 aa 0e c0 d3 c7 54 c0
       0.03256066 -0.4837894 -2.2291389 -3.3246963
0002b0 d7 4c c4 bf 7b 03 19 bf 86 5b 23 3f 32 66 ee 3d
       -1.533595 -0.59770936 0.6381153 0.11640586
0002c0 76 b6 a9 bb eb 77 b5 bf ce de 9c be 82 b4 04 be
       -0.0051792217 -1.4177221 -0.30638736 -0.12959483
0002d0 e6 f7 b4 be 90 4f 5b 3f c2 ba 4d 3e c9 b2 11 be
       -0.35345381 0.8566828 0.20090774 -0.14228357
0002e0 54 02 ab 3e 4c f5 3f be 21 3c bf 3e 80 bc 0b bb
       0.33400214 -0.18745917 0.37350562 -0.0021322072
0002f0 2e 03 cb bd e8 88 38 3f 3b 66 41 3f a0 24 0c bf
       -0.09912716 0.720839 0.75546616 -0.54743385
000300 02 9f d2 bf ef e6 58 c0 6b 87 b1 c0 5c 3c 86 bf
       -1.6454775 -3.389095 -5.5477805 -1.048717
000310 bd 99 b9 3c 52 5e 4b c0 8d 59 24 c0 46 60 8c bf
       0.022656316 -3.1776319 -2.5679657 -1.096688
000320 05 4b 0c c0 0b 69 a5 3d d7 f1 03 3f 62 b9 da 3e
       -2.1920788 0.08076676 0.51540893 0.4271956
000330 54 36 66 bf ec 51 23 3f 14 c2 1a 3e fa 41 8a 3e
       -0.8992665 0.6379688 0.15113097 0.2700346
000340 39 7e 99 bd 05 2a fd 3e 6d fe 8a 3e 28 9f db bd
       -0.07494778 0.4944612 0.27147236 -0.10723716
000350 56 ee a7 bd c9 6a 2f 3f 2c f2 03 3f 10 c2 b7 3e
       -0.08199756 0.68522316 0.515414 0.35890245
000360 05 bf 12 be 82 8b 89 be d6 c7 ea be 2c 18 9c 3e
       -0.1433068 -0.2686425 -0.45855588 0.30487192
000370 45 5f cb 3e be c7 82 bf 04 81 d4 c0 d2 1a 94 be
       0.39721122 -1.0217206 -6.640749 -0.28926712
000380 17 be 29 40 97 b7 19 c0 67 f8 93 3f 4f 85 bf 3f
       2.6522272 -2.4018304 1.1560181 1.4962558
000390 e9 e9 ef bf fa c8 3e bf 53 e3 08 bf dc f7 90 bd
       -1.8743259 -0.74525416 -0.5347187 -0.070785254
0003a0 b4 b7 fa 3e 09 e6 93 3e c7 57 ea be 47 48 82 3d
       0.4896828 0.2888644 -0.45770094 0.06361442
0003b0 4b c7 eb 3e 99 37 d2 be 3e f7 f0 3e 8e 95 02 3f
       0.46050486 -0.41058043 0.4706363 0.5100945
0003c0 44 a8 48 3f 22 bd 33 3f 00 fe 57 3b 88 ff aa be
       0.7838175 0.7021047 0.0032957792 -0.3339808
0003d0 53 59 06 3f d9 ae 08 3f 34 2d 18 3f f3 7e 05 bc
       0.5248005 0.53391796 0.59443974 -0.008147943
0003e0 18 a4 a9 be 08 c3 2e c0 b5 0a c0 c0 57 e7 4d c0
       -0.33133006 -2.7306538 -6.001307 -3.2172449
0003f0 1f 24 36 be a2 18 a2 bf 8a f9 2d c0 55 8a 85 3f
       -0.17787217 -1.2663767 -2.7183557 1.043284

model.linear.1.bias f4 [10]
000000 a7 90 8d bf 3b c6 f1 3f 45 9c ef 3e 59 0d 53 bf
       -1.1059769 1.888862 0.46798912 -0.8244224
000010 e6 c2 d8 3e 47 97 26 40 2b ac 33 bf 80 23 be 3f
       0.42336196 2.6029832 -0.7018458 1.4854584
000020 3f b3 11 c0 15 67 07 bf
       -2.2765653 -0.52891666

square_avg f4 [10, 784]
000000 00 00 00 00 00 00 00 00 00 00 00 00 00 00 00 00
       0.0 0.0 0.0 0.0
000010 00 00 00 00 00 00 00 00 00 00 00 00 00 00 00 00
       0.0 0.0 0.0 0.0
000020 00 00 00 00 00 00 00 00 00 00 00 00 00 00 00 00
       0.0 0.0 0.0 0.0
000030 20 eb 1f 1b 3b 5a 40 1c 89 6c 2c 18 06 44 99 13
       1.3228145e-22 6.364409e-22 2.2285275e-24 3.8689706e-27
000040 00 00 00 00 00 00 00 00 00 00 00 00 00 00 00 00
       0.0 0.0 0.0 0.0
000050 00 00 00 00 00 00 00 00 00 00 00 00 00 00 00 00
       0.0 0.0 0.0 0.0
000060 00 00 00 00 00 00 00 00 00 00 00 00 00 00 00 00
       0.0 0.0 0.0 0.0
000070 00 00 00 00 00 00 00 00 00 00 00 00 00 00 00 00
       0.0 0.0 0.0 0.0
000080 04 c4 f3 0c 4f 4a 7a 10 be ed af 14 40 85 d7 1a
       3.755805e-31 4.9361052e-29 1.7764257e-26 8.913719e-23
000090 74 7b 9d 1d 42 bb d0 1b 89 41 e9 23 c8 24 a9 2f
       4.16852e-21 3.4531726e-22 2.5289666e-17 3.0767056e-10
0000a0 d2 32 a5 30 de 4b 5f 2f c7 bd 90 26 44 13 37 32
       1.2019774e-09 2.0308685e-10 1.0043446e-15 1.0656382e-08
0000b0 d7 fb aa 33 d6 b9 9a 32 5e 35 2f 2a e0 87 a9 1e
       7.962051e-08 1.8012468e-08 1.5561638e-13 1.7949768e-20
0000c0 80 02 0c 1e 11 41 5b 15 54 91 99 10 c2 60 cc 10
       7.412055e-21 4.4278026e-26 6.057177e-29 8.061289e-29
0000d0 00 00 00 00 00 00 00 00 00 00 00 00 00 00 00 00
       0.0 0.0 0.0 0.0
0000e0 00 00 00 00 00 00 00 00 65 80 bb 17 43 4d ee 2c
       0.0 0.0 1.2117003e-24 6.7729446e-12
0000f0 cb ae 62 2b 93 58 5b 1f 9d 12 87 29 95 bb 8e 30
       8.0533903e-13 4.644832e-20 5.998433e-14 1.0385174e-09
000100 ed 0f 92 2e 80 f4 e0 28 b1 d4 b8 2a 99 d0 b9 31
       6.64214e-11 2.497503e-14 3.283255e-13 5.4079234e-09
000110 71 14 1d 32 85 94 cd 31 22 b3 53 31 64 fd 46 30
       9.143251e-09 5.98317e-09 3.0806366e-09 7.239207e-10
000120 59 b2 b7 31 ef 93 d0 2e 59 dc 80 2d e4 5d 30 2e
       5.3462768e-09 9.485023e-11 1.464977e-11 4.010116e-11
000130 b5 d4 47 2e 00 8c c4 2c c5 d7 82 27 e9 9b 03 27
       4.5436283e-11 5.586198e-12 3.6316186e-15 1.8264421e-15
000140 09 17 0b 22 e4 0a 0e 19 00 00 00 00 00 00 00 00
       1.8850207e-18 7.343427e-24 0.0 0.0
000150 00 00 00 00 00 00 00 00 ec 9f e3 18 fb f7 85 2e
       0.0 0.0 5.8839605e-24 6.09219e-11
000160 1a 46 6f 30 28 26 2c 30 0c 4e cf 2f 19 f8 56 32
       8.7047314e-10 6.262746e-10 3.7708536e-10 1.251285e-08
000170 05 ae 30 33 35 ed 9c 33 28 f7 4e 34 1f b0 e5 34
       4.1136463e-08 7.307464e-08 1.927516e-07 4.278272e-07
000180 58 1e f8 34 6a 05 14 35 51 61 20 35 92 98 11 35
       4.6215678e-07 5.5142175e-07 5.974626e-07 5.423873e-07
000190 d4 53 2b 35 48 ac 12 35 c5 2d f9 34 5c 98 e8 34
       6.382445e-07 5.463994e-07 4.6413166e-07 4.3324223e-07
0001a0 63 f3 ea 33 cd e2 97 33 cb ba df 32 b9 17 84 31
       1.0940746e-07 7.07274e-08 2.604556e-08 3.8444026e-09
0001b0 da 76 26 31 a7 b4 5d 2f 5d c7 b9 2c 00 00 00 00
       2.4223739e-09 2.0164014e-10 5.28015e-12 0.0
0001c0 00 00 00 00 33 b7 b2 12 17 72 83 20 08 2a 5d 2d
       0.0 1.1278541e-27 2.2267762e-19 1.2571728e-11
0001d0 3c b0 06 2b 42 f4 15 2f a7 a2 dd 32 8c fc 33 34
       4.785094e-13 1.3638249e-10 2.5801752e-08 1.676255e-07
0001e0 e6 28 92 34 27 73 37 35 ac 31 b6 35 58 83 e4 35
       2.7224377e-07 6.834038e-07 1.3574513e-06 1.702555e-06
0001f0 4e 20 fd 35 58 1e 1c 36 c1 16 31 36 e7 c5 33 36
       1.8859371e-06 2.3263474e-06 2.63883e-06 2.6788273e-06
000200 cf b8 22 36 29 fe 2f 36 fb 8b 0e 36 34 87 00 36
       2.4247454e-06 2.6224973e-06 2.1241128e-06 1.9152185e-06
000210 2f fc ad 35 5a 31 28 35 fb fa bb 34 64 b1 1f 34
       1.29629e-06 6.2656693e-07 3.5014077e-07 1.4872563e-07
000220 ad 35 ea 33 54 c7 d2 31 c9 c0 1e 2b 50 4e df 1f
       1.0906238e-07 6.1344654e-09 5.640042e-13 9.457373e-20
000230 00 00 00 00 00 00 00 00 e1 6a 0a 2a 32 d3 54 30
       0.0 0.0 1.2293943e-13 7.742528e-10
000240 92 75 45 2c b4 17 20 33 d9 19 87 34 e0 a5 df 34
       2.8060648e-12 3.727446e-08 2.5164516e-07 4.1657677e-07
000250 9d 9e 5f 35 b0 5a d4 35 0d f6 16 36 ce 16 48 36
       8.3304786e-07 1.5821624e-06 2.2494962e-06 2.9815596e-06
000260 72 8c 80 36 2c 7b a3 36 9e 41 c3 36 0b 3f e3 36
       3.8310473e-06 4.8721176e-06 5.8190917e-06 6.7724663e-06
000270 07 37 e7 36 90 25 e0 36 a3 c7 c8 36 a6 ec 96 36
       6.8907425e-06 6.680093e-06 5.9837053e-06 4.497898e-06
000280 28 99 5e 36 41 e7 f4 35 1d ed 93 35 14 63 14 35
       3.3169727e-06 1.824672e-06 1.1021363e-06 5.5278474e-07
000290 65 fe 81 34 6f 57 90 31 79 24 c9 2a b1 78 b8 24
       2.421322e-07 4.2008916e-09 3.573008e-13 8.000174e-17
0002a0 00 00 00 00 38 b3 8d 20 83 00 5e 2d 49 92 d4 24
       0.0 2.4004926e-19 1.2619353e-11 9.218816e-17
0002b0 9a 04 10 2f 5b e3 b5 33 a0 c4 bd 34 29 2f 39 35
       1.3098359e-10 8.469825e-08 3.5347057e-07 6.89865e-07
0002c0 36 f6 b2 35 19 f8 17 36 fa c0 59 36 f3 93 95 36
       1.333369e-06 2.2645165e-06 3.2447847e-06 4.4577696e-06
0002d0 8d 61 c7 36 8d 4d 0a 37 de 06 0f 37 9c 52 20 37
       5.9420186e-06 8.243497e-06 8.525063e-06 9.555977e-06
0002e0 89 b3 34 37 3a 13 2d 37 23 c2 1c 37 01 2e 10 37
       1.0770637e-05 1.031608e-05 9.343526e-06 8.59378e-06
0002f0 26 64 e1 36 14 b0 93 36 0c a2 34 36 99 bb c0 35
       6.7171813e-06 4.4014396e-06 2.6916414e-06 1.4359713e-06
000300 7c 38 c3 34 d8 e7 98 31 87 6e 88 2b 24 74 3f 2b
       3.6362678e-07 4.45014e-09 9.694059e-13 6.801801e-13
000310 00 00 00 00 5a 15 32 28 d1 58 66 24 75 93 09 29
       0.0 9.885615e-15 4.994853e-17 3.054801e-14
000320 95 a6 6e 30 dc 22 00 34 a6 2a 02 35 65 f8 94 35
       8.6820623e-10 1.1933611e-07 4.8490836e-07 1.1099152e-06
000330 fa fa 26 36 13 28 64 36 b7 ee a5 36 ba 48 df 36
       2.4882015e-06 3.3997974e-06 4.9451733e-06 6.6543844e-06
000340 42 81 07 37 db 17 11 37 88 1b 19 37 5c bc 1d 37
       8.076722e-06 8.648228e-06 9.125921e-06 9.401785e-06
000350 a9 98 2d 37 01 08 3c 37 da bf 41 37 c2 08 28 37
       1.03471475e-05 1.1207537e-05 1.1548365e-05 1.0015619e-05
000360 fd ee 04 37 f2 64 cc 36 4f 01 87 36 42 3b 24 36
       7.923457e-06 6.0914253e-06 4.023466e-06 2.4472397e-06
000370 56 2f 5c 35 4b 6d dd 33 0a de 4b 2a 7c f4 4e 2c
       8.202527e-07 1.0310995e-07 1.8107057e-13 2.9410077e-12
000380 1a b7 fe 30 f2 3d c6 27 63 15 da 28 a6 2a f5 2e
       1.8532973e-09 5.50232e-15 2.4212137e-14 1.1148886e-10
000390 d7 27 1a 32 e0 fe 36 34 de fd 51 35 4a bb 02 36
       8.973038e-09 1.7042794e-07 7.822799e-07 1.9480526e-06
0003a0 d2 5b 5d 36 40 02 89 36 e5 7f d4 36 7a 50 04 37
       3.2985013e-06 4.08318e-06 6.3329812e-06 7.8865505e-06
0003b0 9d 65 0d 37 de 7d 11 37 41 83 0f 37 32 17 03 37
       8.427914e-06 8.671979e-06 8.554024e-06 7.813609e-06
0003c0 93 1d 14 37 0d e3 2d 37 ef 68 3d 37 22 35 33 37
       8.828373e-06 1.0364468e-05 1.128971e-05 1.0681602e-05
0003d0 3c cc 08 37 81 30 d5 36 90 ce 8f 36 a0 4a 28 36
       8.153784e-06 6.3535413e-06 4.285779e-06 2.5077388e-06
0003e0 7a e5 71 35 42 e1 14 33 34 cf 4d 29 e9 0e c8 24
       9.011343e-07 3.4663806e-08 4.5698864e-14 8.676143e-17
0003f0 e5 d1 3d 19 f2 f9 80 22 61 37 a3 24 f5 f9 a1 31
       9.813459e-24 3.495911e-18 7.07838e-17 4.7141335e-09

square_avg f4 [10]
000000 b4 0d d3 37 cb 6f f2 37 5c 1f cd 38 d6 a0 00 39
       2.5159541e-05 2.8900706e-05 9.781003e-05 0.00012266947
000010 20 79 98 38 6e 8f 16 39 d5 5f 0f 38 e9 da 87 38
       7.270486e-05 0.00014358546 3.4183107e-05 6.478077e-05
000020 5d bb 56 39 09 cd 13 39
       0.00020478429 0.00014095394
