chap_10/logs/hitters/version_0/checkpoints/epoch=49-step=300.ckpt (torch, 15292 bytes, 6 tensors)

model.sequential.0.weight f4 [50, 19]
0	0xbdd05150	-0.10171759
1	0x3cbcfa60	0.023068607
2	0xbe93e026	-0.2888195
3	0xbe89a4de	-0.26883596
4	0xbe40e191	-0.18836047
5	0xbd1d9db4	-0.038480476
6	0xbdd61bed	-0.10454545
7	0x3da7bbe2	0.08190133
8	0xbdf67eee	-0.12035929
9	0xbd20f271	-0.03929371
10	0xbe2d657c	-0.16933244
11	0xbe1493d5	-0.14509518
12	0xbea36a82	-0.31917197
13	0xbe80fe02	-0.25193793
14	0xbe473d7a	-0.19457045
15	0xbdbb6533	-0.091501616
16	0xbc186f50	-0.009303883
17	0x3d1a3bc8	0.037654668
18	0xbe82d4e0	-0.25553036
19	0xbe4cb31e	-0.19990203
20	0xbc88944c	-0.016672276
21	0x3db95a32	0.090504065
22	0xbe16bf36	-0.14721379
23	0x3d92ca14	0.071674496
24	0xbe0c43f6	-0.136978
25	0xbd9b157c	-0.07572457
26	0x3ddca1ce	0.10773049
27	0xbea02a3a	-0.31282216
28	0xbe7a4ac8	-0.2444259
29	0xbe21dfbf	-0.15808009
30	0xbe41f8f4	-0.18942624
31	0x3dc92526	0.098215386
32	0xbe7eabe6	-0.24870262
33	0xbe528acc	-0.2056076
34	0xbe85434e	-0.26027912
35	0xbea13592	-0.31486183
36	0xbe6f8886	-0.23391923
37	0x3dc71394	0.09720531
38	0x3b1b49a0	0.0023695007
39	0x3c375c98	0.01119151
40	0xbdb41715	-0.08793465
41	0xbe5ed72a	-0.21761766
42	0xbd7a9e8e	-0.061186366
43	0xbea0df61	-0.31420425
44	0xbe8812c0	-0.26576805
45	0xbe5f825a	-0.21827069
46	0x3d3748bc	0.0447471
47	0x3d0d5bbe	0.03451132
48	0xbe4e962c	-0.20174474
49	0xbdddc0c8	-0.10827786
50	0x3d3f6304	0.046725288
51	0x3e0324bc	0.12806982
52	0xbc129d98	-0.008948706
53	0xbd8d53d7	-0.06900757
54	0x3d5c727c	0.05382012
55	0xbe70b8f2	-0.23508051
56	0xbd6a7ea9	-0.0572497
57	0xbe8f51d1	-0.27992108
58	0xbe84ccbe	-0.25937456
59	0xbe5fc1b6	-0.21851239
60	0x3b7953e0	0.0038044378
61	0xbbfd8fc0	-0.0077380836
62	0xbe718e74	-0.23589498
63	0xbd1b9f10	-0.03799349
64	0x3cd1ce49	0.02561106
65	0xbe045122	-0.12921575
66	0xbdbbe8ac	-0.09175238
67	0xbd4147d8	-0.047187656
68	0x3d2bb161	0.04191721
69	0x3df5b36b	0.11997112
70	0xbeb062e7	-0.34450457
71	0xbe3c7ddf	-0.18407391
72	0xbc9eeb46	-0.019399296
73	0x3cfc99cf	0.03083506
74	0x3d9ab492	0.07553972
75	0x3cea541a	0.028604556
76	0xbd5e96b0	-0.054342926
77	0xbe995788	-0.29949594
78	0x3cace366	0.021104526
79	0xbe12f7e1	-0.14352371
80	0xbe5aefaf	-0.21380495
81	0x3e50b9e6	0.20383415
82	0x3d987336	0.0744385
83	0xbea85ed8	-0.3288486
84	0xbd69b784	-0.05705978
85	0xbe0df994	-0.13864738
86	0xbe0d0f19	-0.1377529
87	0xbe51efe0	-0.20501661
88	0xbc40f350	-0.01177676
89	0xbe718b82	-0.23588374
90	0x3dac3d93	0.08410182
91	0x3c8336ec	0.0160174
92	0x3d838c2c	0.0642322
93	0xbc68f660	-0.014218897
94	0xbea77484	-0.32706082
95	0xbe905a40	-0.28193855
96	0xbcf96435	-0.03044329
97	0xbe1aba49	-0.15110125
98	0xbed4b17e	-0.41541666
99	0xbeaacfa1	-0.33361533
100	0xbbd7e5ee	-0.006588689
101	0x3e94a953	0.29035434
102	0xbde765d0	-0.11298716
103	0xbd8f7504	-0.07004741
104	0xbe5c88cc	-0.21536559
105	0xbc55c8d6	-0.013048371
106	0xbe338b90	-0.17533708
107	0xbe3ede7d	-0.1863956
108	0x3f31cf83	0.6945726
109	0xbec266b8	-0.37968993
110	0xbba7e617	-0.0051238644
111	0x3f241e74	0.6410897
112	0x3d8b03cd	0.06787834
113	0x3f81676e	1.0109689
114	0x3f237177	0.6384501
115	0x3e296ce6	0.16545448
116	0x3ead84e0	0.33890438
117	0x3ed64acd	0.41853943
118	0x3ede3e2f	0.43406817
119	0x3ef38f75	0.47570387
120	0xbd338b51	-0.043834034
121	0xbda4660b	-0.08027276
122	0xbe742cce	-0.23845217
123	0x3c0eddd2	0.008719878
124	0xbea3a744	-0.3196355
125	0xbe859121	-0.26087287
126	0xbe011e68	-0.12609255
127	0xbe5271a5	-0.20551164
128	0x3f70e4ec	0.9409931
129	0x3e4ce5e7	0.20009576
130	0xbd0ea446	-0.034824632
131	0x3f0abec7	0.54197353
132	0xbe554066	-0.20825347
133	0xbf24a739	-0.6431766
134	0xbf05e805	-0.5230716
135	0xbf158e3e	-0.5842017
136	0xbf30c532	-0.69050896
137	0xbf324f69	-0.6965242
138	0xbf0d7552	-0.5525714
139	0x3e29de7e	0.1658878
140	0x3e293b28	0.16526473
141	0x3d14d38e	0.036334567
142	0x3d2cc28e	0.04217773
143	0xbe37a643	-0.17934518
144	0xbe993ccd	-0.299292
145	0xbe057136	-0.13031468
146	0xbe6fe455	-0.23426946
147	0x3e7e4e10	0.24834466
148	0xbf13b3a5	-0.5769599
149	0xbf48df7d	-0.78466016
150	0xbf816871	-1.0109998
151	0xbea03e4e	-0.31297535
152	0xbd3e9a60	-0.046533942
153	0x3e00d51d	0.12581296
154	0x3dfe0443	0.124031566
155	0xbe6290e4	-0.22125584
156	0x3e128a3a	0.14310542
157	0xbe37d416	-0.17951998
158	0xbd46a8d2	-0.048500843
159	0xbdbe8237	-0.0930218
160	0xbd34ff7f	-0.044188973
161	0xbd38802b	-0.045044105
162	0xbe52ce96	-0.20586619
163	0xbe4ad71e	-0.19808623
164	0xbd130aad	-0.035898853
165	0x3b426f6a	0.0029668459
166	0xbdd57025	-0.104217805
167	0x3db0fd59	0.08642072
168	0xbe537179	-0.20648755
169	0xbc7daae0	-0.015482634
170	0x3e4e983f	0.20175265
171	0xbe463902	-0.19357684
172	0x3ddb7856	0.10716312
173	0xbc8a93e4	-0.016916223
174	0xbe9d342e	-0.30703872
175	0x3d38eff8	0.045150727
176	0xbe018238	-0.12647331
177	0xbe4f454a	-0.20241275
178	0x3daae96c	0.08345303
179	0xbe921e9b	-0.28538975
180	0xbd9a622b	-0.07538255
181	0xbe1795d3	-0.14803247
182	0x3d82b89c	0.06382868
183	0xbd134aa2	-0.035959847
184	0x3c27b2c0	0.010235488
185	0xbc9b7b78	-0.018979773
186	0xbe1ee489	-0.15516867
187	0xbe17ce29	-0.14824738
188	0xbe93ff50	-0.28905725
189	0x3cc720a4	0.024307556
190	0x3eb5dbc5	0.35519233
191	0x3f1375d8	0.5760169
192	0xbd28bada	-0.04119382
193	0x3eaa0825	0.3320934
194	0x3e4dbdba	0.20091906
195	0x3ee0e324	0.43923295
196	0xbec30ace	-0.3809418
197	0xbab436e0	-0.0013749264
198	0xbd9d1667	-0.076702885
199	0x3e6a8e0d	0.2290575
200	0x3dd898fd	0.10576055
201	0x3e862de2	0.2620688
202	0xbe1f76b3	-0.15572624
203	0xbdc70694	-0.097180516
204	0xbfa268c5	-1.2688223
205	0x3ec9378b	0.39300188
206	0xbe8f3ab0	-0.27974463
207	0x3ec4fd02	0.3847428
208	0x3d59da96	0.053186975
209	0xbec03d99	-0.37546995
210	0xbf11aa51	-0.5690051
211	0xbf43d868	-0.76502085
212	0xbf2549ab	-0.64565533
213	0xbf3a8c83	-0.72870654
214	0xbf2c703d	-0.6735876
215	0x3f742937	0.9537539
216	0xbeba109c	-0.36340797
217	0xbeaa1530	-0.3321929
218	0x3f13dea4	0.577616
219	0xbe913fcf	-0.28368995
220	0x3d8aadde	0.06771444
221	0x3dccbf92	0.09997477
222	0x3fa0c850	1.256113
223	0xbf68d993	-0.9095699
224	0x3eb1d5a1	0.34733298
225	0x3f7694aa	0.96320593
226	0x3f07df1b	0.53074807
227	0x3f8f1235	1.1177431
228	0xbe809008	-0.25109887
229	0xbe680e22	-0.22661641
230	0xbe45ed46	-0.19328794
231	0xbdaf5465	-0.08561019
232	0xbe496594	-0.19667655
233	0xbd9d7685	-0.076886214
234	0x3e7ffc5e	0.24998614
235	0xbe2a7646	-0.1664668
236	0x3da7b39b	0.08188554
237	0xbe25071c	-0.16115993
238	0xbde9235e	-0.11383699
239	0x3d75f052	0.06004364
240	0x3d691bcd	0.05691128
241	0x3f6ef388	0.9334035
242	0xbf04185a	-0.5159966
243	0x3d55babc	0.052180037
244	0x3f0ae005	0.54248077
245	0x3b9d0200	0.004791498
246	0x3f8b8326	1.0899398
247	0xbe9454bd	-0.289709
248	0xbdc6530a	-0.09683807
249	0xbd1fc334	-0.03900452
250	0xbdf7742e	-0.120827064
251	0x3cf86615	0.030322114
252	0x3e4242db	0.18970816
253	0xbe2b127c	-0.1670627
254	0xbe71df23	-0.23620276
255	0xbe3d487e	-0.18484685

model.sequential.0.bias f4 [50]
0	0xbe7552ec	-0.23957413
1	0xbe43188f	-0.19052337
2	0xbe933b76	-0.28756303
3	0xbea3fd71	-0.32029298
4	0x3d18aec0	0.03727603
5	0x3f12b4f8	0.57307386
6	0x3e8cf12f	0.27527758
7	0xbf0e1463	-0.5549986
8	0x3d9c513e	0.07632683
9	0xbdb7b132	-0.08969344
10	0xbe70a012	-0.23498562
11	0x3f83e95a	1.0305588
12	0x3f1d638c	0.6148002
13	0xbea6bc38	-0.32565475
14	0xbea8008e	-0.32812923
15	0x3e07e7ba	0.1327199
16	0x3e866325	0.26247516
17	0x3f78f97a	0.9725567
18	0xbd5f93de	-0.054584377
19	0x3f7857a4	0.9700873
20	0x3dc301dc	0.09521839
21	0xbe98cb7b	-0.29842743
22	0x3e6a6332	0.22889403
23	0x3e9bd3a0	0.30434895
24	0xbe6a86bc	-0.2290296
25	0x3ca2724e	0.019829895
26	0xbcce976f	-0.025218694
27	0x3e82b587	0.2552912
28	0xbe69bb39	-0.22825326
29	0x3e0f28c5	0.13980396
30	0xbe2a9af2	-0.1666067
31	0xbe660a53	-0.22464876
32	0xbe171240	-0.14753056
33	0xbe664b6a	-0.22489706
34	0xbd8a37aa	-0.06748898
35	0xbe7a1ea5	-0.24425752
36	0xbe8b97bb	-0.272642
37	0x3f6cea18	0.925447
38	0xbd9dd51d	-0.07706664
39	0x3e2eba8e	0.17063352
40	0x3dab6b4c	0.08370075
41	0x3e375ec3	0.17907242
42	0xbdf28f9a	-0.11843796
43	0xbe31f116	-0.17377123
44	0x3e411190	0.18854356
45	0x3c84e929	0.01622446
46	0x3bee90bb	0.007280437
47	0xbe3f4d1a	-0.18681756
48	0xbdcb1d23	-0.09917667
49	0xbd7d3f09	-0.061827693

model.sequential.3.weight f4 [1, 50]
0	0x3db42d25	0.08797673
1	0xbc289e28	-0.010291614
2	0x3dcb04cf	0.099130265
3	0xbc745c80	-0.014914632
4	0x3d8e7dd0	0.069575906
5	0x3f1a1349	0.60185677
6	0xbee22d6d	-0.44175282
7	0xbe1456ac	-0.14486188
8	0xbd0d7131	-0.034531776
9	0x3d7acdf8	0.061231583
10	0x3dad5d87	0.084651046
11	0x3f86c5c0	1.0529099
12	0x3e942a3d	0.28938475
13	0x3b28ec60	0.0025775656
14	0x3db85c42	0.09001972
15	0x3dde9a5e	0.10869287
16	0x3e262c21	0.16227771
17	0x3f9e9721	1.2389871
18	0x3c94a1d0	0.018143564
19	0x3f5cb3ff	0.8621215
20	0x3de1d543	0.110270046
21	0xbd297b85	-0.041377563
22	0xbda81229	-0.08206589
23	0x3df2d273	0.11856546
24	0x3db881b8	0.09009117
25	0xbe08c72c	-0.13357228
26	0xbb650083	-0.0034942932
27	0x3dec4e46	0.11538367
28	0xbd4478b8	-0.04796669
29	0x3d993789	0.074812956
30	0x3c415190	0.011799231
31	0x3ca887c5	0.020572552
32	0x3d8d68ca	0.069047526
33	0x3d61b9fd	0.055109013
34	0x3dbe2793	0.09284892
35	0x3e1afb41	0.15134908
36	0xbc037ab8	-0.008024864
37	0x3f819514	1.012362
38	0xbdf0ea51	-0.11763442
39	0x3e1d8446	0.1538249
40	0x3d28ef80	0.04124403
41	0x3e044b98	0.12919462
42	0x3d645ee2	0.05575455
43	0x3c9b82a4	0.018983193
44	0x3d3eac5d	0.046551097
45	0x3bb6b9f7	0.005576368
46	0x3d8d69e7	0.06904965
47	0x3d46230a	0.04837326
48	0xbd146d04	-0.036236778
49	0x3d5ec4b7	0.05438682

square_avg f4 [50, 19]
0	0x4681fb71	16637.72
1	0x449682f3	1204.0922
2	0x419553b4	18.66587
3	0x43b5b7cc	363.4359
4	0x43987195	304.88736
5	0x4350a629	208.64906
6	0x4152fc83	13.186648
7	0x4a0f27d8	2.345462e+06
8	0x482f021d	179208.45
9	0x44c96d90	1611.4238
10	0x472ab86d	43704.426
11	0x4712cc2a	37580.164
12	0x46a988ac	21700.336
13	0x3d00238a	0.031283893
14	0x3ccdb88c	0.025112413
15	0x45bf7b1a	6127.3877
16	0x44c1a59b	1549.1752
17	0x41097830	8.591843
18	0x3d298d92	0.041394778
19	0x49542abf	869035.94
20	0x478cca4a	72084.58
21	0x4475a5d8	982.5913
22	0x46872cad	17302.338
23	0x46935032	18856.098
24	0x464ca76a	13097.854
25	0x443568db	725.63837
26	0x4d067b3d	1.4101397e+08
27	0x4b2eec87	1.1463815e+07
28	0x482e2ce8	178355.62
29	0x4a29c6af	2.7816118e+06
30	0x4a4cb6b6	3.3540295e+06
31	0x49be7260	1.56014e+06
32	0x3f843f08	1.0331736
33	0x3f9b79d4	1.2146554
34	0x49dd8a24	1.8148525e+06
35	0x4699b07d	19672.244
36	0x43e87997	464.94992
37	0x3fcb5081	1.5883943
38	0x3f4d53e8	0.80206156
39	0x3d6b51ca	0.057451047
40	0x39312bd1	0.00016896358
41	0x3c3103cc	0.010804128
42	0x3bc2964b	0.0059383265
43	0x3afd5460	0.0019327514
44	0x397d6b8e	0.00024168027
45	0x40527ebc	3.2889853
46	0x3e7b9384	0.24567991
47	0x3a419e84	0.00073859864
48	0x3d63256f	0.05545562
49	0x3cf73cee	0.03018042
50	0x3c7cd32e	0.015431209
51	0x37b6dcd9	2.179893e-05
52	0x353253ad	6.643193e-07
53	0x3f0df6f2	0.55454934
54	0x3ffc3e1f	1.9706458
55	0x3b0ad0fc	0.0021181693
56	0x37b6dcd9	2.179893e-05
57	0x4a80f562	4.225713e+06
58	0x489f2ee1	326007.03
59	0x458a4ca7	4425.5815
60	0x47a2d922	83378.266
61	0x479ed85e	81328.734
62	0x476d5c46	60764.273
63	0x455101d6	3344.1147
64	0x4e2245ed	6.806229e+08
65	0x4c4c7cf2	5.360532e+07
66	0x49261fe3	680446.2
67	0x4b4e6b77	1.3527927e+07
68	0x4b493250	1.3185616e+07
69	0x4adec9d4	7.30033e+06
70	0x411df07f	9.871215
71	0x4052d7aa	3.294413
72	0x4a350bee	2.9662675e+06
73	0x4917cceb	621774.7
74	0x452cfaf7	2767.6853
75	0x4105430e	8.328871
76	0x41111a31	9.068894
77	0x3cb9bb26	0.022672247
78	0x00000000	0.0
79	0x00000000	0.0
80	0x00000000	0.0
81	0x00000000	0.0
82	0x3db9bb26	0.09068899
83	0x421872b6	38.112022
84	0x3feb10d7	1.8364514
85	0x3db9bb26	0.09068899
86	0x3f50f280	0.81620026
87	0x3f8e3344	1.1109395
88	0x3eb9bb26	0.36275595
89	0x3cb9bb26	0.022672247
90	0x00000000	0.0
91	0x4309f016	137.93784
92	0x44892abf	1097.3358
93	0x3f50f280	0.81620026
94	0x3cb9bb26	0.022672247
95	0x4b7eba3e	1.6693822e+07
96	0x4995c7c8	1.227001e+06
97	0x464c97ab	13093.917
98	0x4893d534	302761.62
99	0x48968a96	308308.7
100	0x483b49ee	191783.72
101	0x45ea9299	7506.3247
102	0x4e7727fd	1.03664826e+09
103	0x4ca672fe	8.726731e+07
104	0x493ff269	786214.56
105	0x4b9f4884	2.0877576e+07
106	0x4b992f27	2.0078158e+07
107	0x4b0422ae	8.65963e+06
108	0x438f2e3a	286.36115
109	0x42057a04	33.369156
110	0x4ac24d75	6.3669065e+06
111	0x4b6a6685	1.5361669e+07
112	0x4689c0f7	17632.482
113	0x438bd2a8	279.64575
114	0x4d07a624	1.4223827e+08
115	0x4b4c4a5d	1.3388381e+07
116	0x486f1a79	244841.89
117	0x4a52af7a	3.4518705e+06
118	0x4a582abe	3.5416795e+06
119	0x4997373c	1.2387595e+06
120	0x463cfac6	12094.693
121	0x4eccd0d4	1.7181189e+09
122	0x4d13fda5	1.551796e+08
123	0x4a0fb51b	2.3545028e+06
124	0x4c0bf429	3.6688036e+07
125	0x4c20d5b5	4.2161876e+07
126	0x4b53c40f	1.3878287e+07
127	0x4366e27e	230.88474
128	0x4304750f	132.45726
129	0x4da19a87	3.3890736e+08
130	0x4b21e7b6	1.0610614e+07
131	0x471ec047	40640.277
132	0x436317f3	227.09355
133	0x4bd4bd44	2.7884168e+07
134	0x4a02dd1e	2.1440715e+06
135	0x4713eb10	37867.062
136	0x491417d4	606589.25
137	0x4922b940	666516.0
138	0x49009ae0	526766.0
139	0x4708eff4	35055.953
140	0x4fd2ab8c	7.0689157e+09
141	0x4e0449e7	5.5485894e+08
142	0x4b1c81cf	1.0256847e+07
143	0x4d0d747d	1.4832635e+08
144	0x4d19b383	1.6116741e+08
145	0x4ca5e923	8.6984984e+07
146	0x425d0166	55.251366
147	0x429e96b7	79.294365
148	0x4b02544c	8.54126e+06
149	0x49e6bde5	1.8902366e+06
150	0x46340a31	11522.548
151	0x4224da6b	41.2133
152	0x00000000	0.0
153	0x00000000	0.0
154	0x00000000	0.0
155	0x00000000	0.0
156	0x00000000	0.0
157	0x00000000	0.0
158	0x00000000	0.0
159	0x00000000	0.0
160	0x00000000	0.0
161	0x00000000	0.0
162	0x00000000	0.0
163	0x00000000	0.0
164	0x00000000	0.0
165	0x00000000	0.0
166	0x00000000	0.0
167	0x00000000	0.0
168	0x00000000	0.0
169	0x00000000	0.0
170	0x00000000	0.0
171	0x48947192	304012.56
172	0x46ae1e6e	22287.215
173	0x437f0f48	255.0597
174	0x45c58b57	6321.4175
175	0x458aa84e	4437.038
176	0x457045c4	3844.3604
177	0x43277fb5	167.49886
178	0x4bdef07a	2.9221108e+07
179	0x4a06ee1a	2.2106945e+06
180	0x469574bf	19130.373
181	0x490a0e67	565478.44
182	0x48cd5ebd	420597.9
183	0x4894f1a5	305037.16
184	0x3f2be6c4	0.67148995
185	0x3ec2fe84	0.38084805
186	0x47987e22	78076.266
187	0x472a60b0	43616.688
188	0x433c80b2	188.50272
189	0x3ed6d56a	0.41959697
190	0x4ca202e8	8.494061e+07
191	0x4acc0cfa	6.686333e+06
192	0x47ca6853	103632.65
193	0x49da909d	1.7904836e+06
194	0x49d99792	1.7825142e+06
195	0x49a04e0d	1.3132176e+06
196	0x47253a9d	42298.613
197	0x4fe50a24	7.685294e+09
198	0x4e0e9e59	5.9818554e+08
199	0x4b20038f	1.0486671e+07
200	0x4d173f25	1.5859362e+08
201	0x4d1d613a	1.6502467e+08
202	0x4cb8355e	9.657829e+07
203	0x42fdcef5	126.90421
204	0x4309b14c	137.69257
205	0x4cb49667	9.4679864e+07
206	0x4b005e39	8.412729e+06
207	0x4711e752	37351.32
208	0x42edfcd7	118.99383
209	0x4ad42996	6.952139e+06
210	0x48ccdb94	419548.62
211	0x44db3424	1753.6294
212	0x47a607c9	85007.57
213	0x4743c788	50119.53
214	0x472cfa94	44282.58
215	0x453c2d74	3010.8408
216	0x4b0d108e	9.244814e+06
217	0x490e185d	582021.8
218	0x45919a67	4659.3003
219	0x4807185a	138337.4
220	0x47c1e338	99270.44
221	0x4782828d	66821.1
222	0x443a8471	746.0694
223	0x42112f81	36.29639
224	0x4abc5284	6.170946e+06
225	0x4c17d058	3.979709e+07
226	0x47073c09	34620.035
227	0x443a8205	746.03156
228	0x4ae5046b	7.5044375e+06
229	0x48e58d77	470123.72
230	0x45e812a7	7426.3315
231	0x47fcee73	129500.9
232	0x48062500	137364.0
233	0x479825fa	77899.95
234	0x45562bda	3426.7407
235	0x4dc3fd12	4.110178e+08
236	0x4bd88fae	2.8385116e+07
237	0x48c0a64f	394546.47
238	0x4ae5b45d	7.5269585e+06
239	0x4ae7c083	7.5940495e+06
240	0x4a70a000	3.9424e+06
241	0x42ba5508	93.16608
242	0x415b5f09	13.710702
243	0x49d87d73	1.7734864e+06
244	0x4aa29883	5.3279375e+06
245	0x459ffe79	5119.809
246	0x42b39056	89.781906
247	0x42b9faf7	92.990166
248	0x3e6e0e06	0.23247537
249	0x00000000	0.0
250	0x00000000	0.0
251	0x00000000	0.0
252	0x00000000	0.0
253	0x3f6e0e06	0.9299015
254	0x43c36540	390.79102
255	0x4196a4dd	18.8305

square_avg f4 [50]
0	0x3df52fa6	0.11971979
1	0x40d7d685	6.7449365
2	0x381e4dc5	3.7742564e-05
3	0x42038837	32.883022
4	0x3cb9bb26	0.022672247
5	0x43a87b26	336.9621
6	0x440d576c	565.36597
7	0x432f7367	175.45079
8	0x00000000	0.0
9	0x3fd927ba	1.6965249
10	0x43c5f567	395.9172
11	0x443dad56	758.7084
12	0x42fa6725	125.201454
13	0x3e6e0e06	0.23247537
14	0x3cb9595d	0.02262562
15	0x440ba446	558.5668
16	0x449a8959	1236.2921
17	0x44f2f65c	1943.6987
18	0x4149b989	12.607797
19	0x440ec5ff	571.0937
20	0x43fcf192	505.88727
21	0x41e0854b	28.065084
22	0x00000000	0.0
23	0x44711c80	964.4453
24	0x3b27fec1	0.0025634023
25	0x00000000	0.0
26	0x4145f4a2	12.372225
27	0x44095920	549.3926
28	0x00000000	0.0
29	0x437389ac	243.53778
30	0x3c0347b8	0.008012705
31	0x00000000	0.0
32	0x41344be3	11.268527
33	0x3fc0e2d0	1.5069218
34	0x3aa48f91	0.0012554993
35	0x4440ab5d	770.67755
36	0x3a4cb5cd	0.0007809073
37	0x4471ce9f	967.22845
38	0x00000000	0.0
39	0x4458d0bb	867.2614
40	0x410ef467	8.934669
41	0x00000000	0.0
42	0x401c4df4	2.442258
43	0x3dde5af4	0.10857192
44	0x43b3a218	359.26636
45	0x4182e06c	16.359581
46	0x40d09e8a	6.519353
47	0x4356ed4b	214.92693
48	0x41762ce5	15.385961
49	0x43d40519	424.03983

square_avg f4 [1, 50]
0	0x4da0b882	3.370558e+08
1	0x4d139167	1.5473624e+08
2	0x472ecc51	44748.316
3	0x4e9d44bc	1.3192637e+09
4	0x4701ec36	33260.21
5	0x4b9ca41c	2.0531256e+07
6	0x4dadfbc9	3.6486992e+08
7	0x4ee51db3	1.9219644e+09
8	0x00000000	0.0
9	0x4dbb1f11	3.9242192e+08
10	0x5097a71f	2.0354497e+10
11	0x4c06afc0	3.5307264e+07
12	0x4ca28dd8	8.522515e+07
13	0x47017ef4	33150.953
14	0x4878c27a	254729.9
15	0x50aac96b	2.2922615e+10
16	0x50420512	1.3020449e+10
17	0x4cf064ee	1.2603582e+08
18	0x4d9bbb7d	3.2659446e+08
19	0x4c3e0e9f	4.9822332e+07
20	0x5111babd	3.911895e+10
21	0x4f4b9f3c	3.4162104e+09
22	0x00000000	0.0
23	0x5059b677	1.4610456e+10
24	0x47175f14	38751.08
25	0x00000000	0.0
26	0x4eed2e08	1.9896084e+09
27	0x50c0c51b	2.5873144e+10
28	0x00000000	0.0
29	0x505c17ce	1.477019e+10
30	0x3c1d4000	0.009597778
31	0x00000000	0.0
32	0x4f44241c	3.2907008e+09
33	0x4a521c41	3.4424482e+06
34	0x464bf85e	13054.092
35	0x50bcb27c	2.532651e+10
36	0x409fad52	4.9899073
37	0x4c8b3f33	7.3005464e+07
38	0x00000000	0.0
39	0x508ef557	1.9187546e+10
40	0x4da91e23	3.5466557e+08
41	0x00000000	0.0
42	0x4efb228f	2.106673e+09
43	0x4585086c	4257.0527
44	0x50b013fe	2.3632802e+10
45	0x4df0160e	5.0349715e+08
46	0x4a738be0	3.990264e+06
47	0x515127cf	5.6144753e+10
48	0x4be008a5	2.9364554e+07
49	0x50df58d3	2.9977123e+10
